Data/n_By_mu_-35_L=1000_h=0.01_B_y_in_(0.0-1.2)_Delta=0.2_lambda_R=0.56_lambda_D=0_g_xx=1_g_xy=0_g_yy=1_g_yx=0_theta=1.57_points=56.npz (npz, 22736 bytes, 8 tensors)

n_B_y f8 [56, 4]
0	0x3fb3c0f75676c8b4	0.07716317997872829
1	0x3fb3c0f75072b021	0.07716317857801915
2	0xbdb999999999999a	-2.3283064365386964e-11
3	0xbdb999999999999a	-2.3283064365386964e-11
4	0x3fb3c0f0036872b0	0.07716274340823293
5	0x3fb3c0f671581062	0.07716312663257122
6	0xbd889374bc6a7efa	-2.7939677238464356e-12
7	0xbd889374bc6a7efa	-2.7939677238464356e-12
8	0x3fb3c0d9f922d0e6	0.0771614297144115
9	0x3fb3c0f3abb645a1	0.07716296140849589
10	0x3d989374bc6a7efa	5.587935447692871e-12
11	0x3d989374bc6a7efa	5.587935447692871e-12
12	0x3fb3c0b51147ae14	0.07715922996401786
13	0x3fb3c0eeee9ba5e3	0.07716267896071076
14	0xbd947ae147ae147c	-4.6566128730773935e-12
15	0xbd947ae147ae147c	-4.6566128730773935e-12
16	0x3fb352ca0dd70a3e	0.07548201406374574
17	0x3fb3c0e7dee56041	0.07716225806996226
18	0xbda0624dd2f1a9fc	-7.450580596923828e-12
19	0xbda0624dd2f1a9fc	-7.450580596923828e-12
20	0x3fb1f0ac214fdf3b	0.07007861912995576
21	0x3fb3c0de22cccccd	0.07716167783364654
22	0xbd70624dd2f1a9fc	-9.313225746154785e-13
23	0xbd70624dd2f1a9fc	-9.313225746154785e-13
24	0x3faf3ffed63d70a5	0.06103512158617378
25	0x3fb3c0d12f810625	0.07716090593114495
26	0xbdb374bc6a7ef9dc	-1.7695128917694095e-11
27	0xbdb374bc6a7ef9dc	-1.7695128917694095e-11
28	0x3fa90ad953958107	0.048910895779728895
29	0x3fb399e87f916873	0.07656720270588994
30	0x3da47ae147ae147c	9.313225746154787e-12
31	0x3da47ae147ae147c	9.313225746154787e-12
32	0x3fa13b73fd99999a	0.03365671606734395
33	0x3fb2734208395811	0.0720711965635419
34	0xbd90624dd2f1a9fc	-3.725290298461914e-12
35	0xbd90624dd2f1a9fc	-3.725290298461914e-12
36	0x3f900df5e6d91687	0.015678255286067724
37	0x3fb01813976872b0	0.06286737867817282
38	0xbd989374bc6a7efa	-5.587935447692871e-12
39	0xbd989374bc6a7efa	-5.587935447692871e-12
40	0xbf603e20fd70a3d7	-0.001982750352472067
41	0x3faa60ae8db22d0e	0.0515188739746809
42	0xbd90624dd2f1a9fc	-3.725290298461914e-12
43	0xbd90624dd2f1a9fc	-3.725290298461914e-12
44	0xbf8f7a712d916873	-0.015370258525013924
45	0x3fa5beea0a76c8b4	0.04247218492254615
46	0x3db374bc6a7ef9dc	1.7695128917694095e-11
47	0x3db374bc6a7ef9dc	1.7695128917694095e-11
48	0xbf98c5950bc6a7f0	-0.024191216319799425
49	0x3fa20f4fc07ae148	0.035273067709058525
50	0x3d889374bc6a7efa	2.7939677238464356e-12
51	0x3d889374bc6a7efa	2.7939677238464356e-12
52	0xbf9e0ed522f1a9fc	-0.029353456743061543
53	0x3f9e547b5bd70a3e	0.029619147758930923
54	0x3db374bc6a7ef9dc	1.7695128917694095e-11
55	0x3db374bc6a7ef9dc	1.7695128917694095e-11
56	0xbf9fb17173020c4a	-0.030950329441577197
57	0x3f99b124b9cac083	0.02508981117233634
58	0x3da6872b020c49ba	1.0244548320770263e-11
59	0x3da6872b020c49ba	1.0244548320770263e-11
60	0xbf9e88d634fdf3b6	-0.02981886576116085
61	0x3f95de8f6e872b02	0.021356812592595815
62	0xbda0624dd2f1a9fc	-7.450580596923828e-12
63	0xbda0624dd2f1a9fc	-7.450580596923828e-12
64	0xbf9b87ee44cccccd	-0.026885722111910582
65	0x3f92fdde554fdf3c	0.01854655643180013
66	0xbdb0624dd2f1a9fc	-1.4901161193847657e-11
67	0xbdb0624dd2f1a9fc	-1.4901161193847657e-11
68	0xbf9871f6727ef9db	-0.023872233141213655
69	0x3f9075dac6560419	0.01607457957789302
70	0xbd889374bc6a7efa	-2.7939677238464356e-12
71	0xbd889374bc6a7efa	-2.7939677238464356e-12
72	0xbf95fb0e424dd2f2	-0.02146551398932934
73	0x3f8d045e1c28f5c2	0.014168486818671226
74	0x3db0624dd2f1a9fc	1.4901161193847657e-11
75	0x3db0624dd2f1a9fc	1.4901161193847657e-11
76	0xbf93e5afcc395811	-0.019430872764438393
77	0x3f89bffa2a7ef9dc	0.012573198720812799
78	0xbdb47ae147ae147c	-1.8626451492309574e-11
79	0xbdb47ae147ae147c	-1.8626451492309574e-11
80	0xbf91ebff99581062	-0.01750182507932186
81	0x3f86ecc29872b021	0.011193771626800299
82	0x3d70624dd2f1a9fc	9.313225746154785e-13
83	0x3d70624dd2f1a9fc	9.313225746154785e-13
84	0xbf90417663b645a2	-0.015874719463288785
85	0x3f845b862a5e3540	0.009940193336457015
86	0xbdaeb851eb851eb8	-1.3969838619232177e-11
87	0xbdaeb851eb851eb8	-1.3969838619232177e-11
88	0xbf8db666f4189375	-0.01450806076452136
89	0x3f8234f03ed91688	0.00889003459736705
90	0x3d70624dd2f1a9fc	9.313225746154785e-13
91	0x3d70624dd2f1a9fc	9.313225746154785e-13
92	0xbf8b6a3fd1a9fbe7	-0.01338624819368124
93	0x3f808bb1c189374c	0.008078945845365525
94	0xbd947ae147ae147c	-4.6566128730773935e-12
95	0xbd947ae147ae147c	-4.6566128730773935e-12
96	0xbf88c58b3ba5e354	-0.012095535047352314
97	0x3f7e0fd9f999999a	0.007339335884898901
98	0xbda0624dd2f1a9fc	-7.450580596923828e-12
99	0xbda0624dd2f1a9fc	-7.450580596923828e-12
100	0xbf86d00c84fdf3b6	-0.011139009293168783
101	0x3f7b65791ef9db23	0.006688569191843271
102	0x3d889374bc6a7efa	2.7939677238464356e-12
103	0x3d889374bc6a7efa	2.7939677238464356e-12
104	0xbf8521dc1f1a9fbe	-0.010318488787859677
105	0x3f798524010624dd	0.006230488434433937
106	0xbd889374bc6a7efa	-2.7939677238464356e-12
107	0xbd889374bc6a7efa	-2.7939677238464356e-12
108	0xbf8399972b020c4b	-0.00957029438018799
109	0x3f77b1ab26e978d5	0.005784672319889069
110	0xbdb0624dd2f1a9fc	-1.4901161193847657e-11
111	0xbdb0624dd2f1a9fc	-1.4901161193847657e-11
112	0xbf81f8870c28f5c3	-0.008774809893220664
113	0x3f754461f645a1cb	0.005192167915403843
114	0xbd989374bc6a7efa	-5.587935447692871e-12
115	0xbd989374bc6a7efa	-5.587935447692871e-12
116	0xbf80cf1acf1a9fbe	-0.00820752090960741
117	0x3f73a677d1a9fbe8	0.004797428172081709
118	0xbda26e978d4fdf3c	-8.381903171539308e-12
119	0xbda26e978d4fdf3c	-8.381903171539308e-12
120	0xbf7f6eeb8e978d51	-0.007674141068011523
121	0x3f7257109a1cac08	0.004477562762796879
122	0xbd947ae147ae147c	-4.6566128730773935e-12
123	0xbd947ae147ae147c	-4.6566128730773935e-12
124	0xbf7d5124a4189375	-0.007157462242990732
125	0x3f71e4dda3958107	0.0043686540387570865
126	0xbdbfbe76c8b43959	-2.8870999813079837e-11
127	0xbdbfbe76c8b43959	-2.8870999813079837e-11
128	0xbf7b751b8083126f	-0.00670347922295332
129	0x3f702d27a189374c	0.0039493129812181
130	0xbdb16872b020c49c	-1.5832483768463136e-11
131	0xbdb16872b020c49c	-1.5832483768463136e-11
132	0xbf79cfe356c8b439	-0.0063017731122672555
133	0x3f6d22babbe76c8c	0.003556599345058203
134	0x3d90624dd2f1a9fc	3.725290298461914e-12
135	0x3d90624dd2f1a9fc	3.725290298461914e-12
136	0xbf78359d424dd2f2	-0.005910505574196577
137	0x3f6bf6e2d5810625	0.0034136228896677495
138	0xbd889374bc6a7efa	-2.7939677238464356e-12
139	0xbd889374bc6a7efa	-2.7939677238464356e-12
140	0xbf76add7d9581063	-0.0055368835069239146
141	0x3f6b8e9dec083128	0.003363903466612101
142	0xbd947ae147ae147c	-4.6566128730773935e-12
143	0xbd947ae147ae147c	-4.6566128730773935e-12
144	0xbf76683dba1cac08	-0.005470505829900503
145	0x3f67c86c46a7ef9d	0.002903186298906803
146	0x0000000000000000	0.0
147	0x0000000000000000	0.0
148	0xbf737ea272b020c5	-0.004759440004825592
149	0x3f67dfecf9db22d1	0.002914393275976181
150	0x0000000000000000	0.0
151	0x0000000000000000	0.0
152	0xbf72c42c6ccccccd	-0.004581616912037134
153	0x3f677b121eb851ec	0.0028663019090890886
154	0xbda47ae147ae147c	-9.313225746154787e-12
155	0xbda47ae147ae147c	-9.313225746154787e-12
156	0xbf73a6d03126e979	-0.004797757387161255
157	0x3f64135d147ae148	0.00245063953101635
158	0xbdb0624dd2f1a9fc	-1.4901161193847657e-11
159	0xbdb0624dd2f1a9fc	-1.4901161193847657e-11
160	0xbf71806da5604189	-0.004272869400680065
161	0x3f63edf4b020c49c	0.002432802110910416
162	0xbdacac083126e979	-1.30385160446167e-11
163	0xbdacac083126e979	-1.30385160446167e-11
164	0xbf6e4eba7e76c8b5	-0.0036996500454843048
165	0x3f63bc878b439581	0.002409233793616295
166	0xbdbfbe76c8b43959	-2.8870999813079837e-11
167	0xbdbfbe76c8b43959	-2.8870999813079837e-11
168	0xbf702f2cebc6a7f0	-0.003951240036636591
169	0x3f61803586a7ef9e	0.002136330168694258
170	0xbda0624dd2f1a9fc	-7.450580596923828e-12
171	0xbda0624dd2f1a9fc	-7.450580596923828e-12
172	0xbf6ff89b8ccccccd	-0.003902725037187338
173	0x3f61a1c77f7ced92	0.0021523376889526847
174	0xbdbeb851eb851eb8	-2.7939677238464354e-11
175	0xbdbeb851eb851eb8	-2.7939677238464354e-11
176	0xbf6b32156e147ae2	-0.0033197802118957046
177	0x3f60f628c49ba5e4	0.002070502877235413
178	0xbdbfbe76c8b43959	-2.8870999813079837e-11
179	0xbdbfbe76c8b43959	-2.8870999813079837e-11
180	0xbf6949e84f5c28f6	-0.003086999636143446
181	0x3f5e00a6b74bc6a9	0.0018312099538743498
182	0xbda6872b020c49ba	-1.0244548320770263e-11
183	0xbda6872b020c49ba	-1.0244548320770263e-11
184	0xbf6c561a44189375	-0.0034590256698429586
185	0x3f5c6066ef9db22e	0.0017319684252142908
186	0xbd989374bc6a7efa	-5.587935447692871e-12
187	0xbd989374bc6a7efa	-5.587935447692871e-12
188	0xbf69b7a8e3d70a3e	-0.0031393335945904257
189	0x3f5fa180f6c8b439	0.0019305953420698642
190	0x3dacac083126e979	1.30385160446167e-11
191	0x3dacac083126e979	1.30385160446167e-11
192	0xbf6637aec10624de	-0.002712098423391581
193	0x3f5c150ab74bc6a8	0.0017140011452138424
194	0xbdaa9fbe76c8b439	-1.210719347000122e-11
195	0xbdaa9fbe76c8b439	-1.210719347000122e-11
196	0xbf6616290a3d70a4	-0.0026961137354373933
197	0x3f57b0944dd2f1aa	0.0014459083825349808
198	0xbdaeb851eb851eb8	-1.3969838619232177e-11
199	0xbdaeb851eb851eb8	-1.3969838619232177e-11
200	0xbf6761e287ae147b	-0.0028542923368513585
201	0x3f593969147ae147	0.0015395666286349295
202	0xbdaa9fbe76c8b439	-1.210719347000122e-11
203	0xbdaa9fbe76c8b439	-1.210719347000122e-11
204	0xbf65b4cb2872b021	-0.00264968566223979
205	0x3f5a25c1b020c49c	0.00159591593593359
206	0xbdb89374bc6a7efa	-2.2351741790771485e-11
207	0xbdb89374bc6a7efa	-2.2351741790771485e-11
208	0xbf637a893020c49c	-0.002377765603363514
209	0x3f56c9eb5e353f7e	0.0013909147754311564
210	0xbdbcac083126e979	-2.60770320892334e-11
211	0xbdbcac083126e979	-2.60770320892334e-11
212	0xbf62d2033f7ced92	-0.002297407478094101
213	0x3f55994915810625	0.0013182843886315823
214	0xbdba9fbe76c8b439	-2.421438694000244e-11
215	0xbdba9fbe76c8b439	-2.421438694000244e-11
216	0xbf634e56bef9db23	-0.002356690812855959
217	0x3f54178327ef9db3	0.0012263089008629324
218	0xbdb999999999999a	-2.3283064365386964e-11
219	0xbdb999999999999a	-2.3283064365386964e-11
220	0xbf6275f713f7ced9	-0.0022535157911479473
221	0x3f5653fbced91688	0.0013627966940402986
222	0xbdb47ae147ae147c	-1.8626451492309574e-11
223	0xbdb47ae147ae147c	-1.8626451492309574e-11

B_values f8 [56]
0	0x0000000000000000	0.0
1	0x3f96578165781658	0.02181818181818182
2	0x3fa6578165781658	0.04363636363636364
3	0x3fb0c1a10c1a10c2	0.06545454545454546
4	0x3fb6578165781658	0.08727272727272728
5	0x3fbbed61bed61bee	0.1090909090909091
6	0x3fc0c1a10c1a10c2	0.13090909090909092
7	0x3fc38c9138c9138d	0.15272727272727274
8	0x3fc6578165781658	0.17454545454545456
9	0x3fc9227192271923	0.19636363636363638
10	0x3fcbed61bed61bee	0.2181818181818182
11	0x3fceb851eb851eb9	0.24000000000000002
12	0x3fd0c1a10c1a10c2	0.26181818181818184
13	0x3fd2271922719228	0.2836363636363637
14	0x3fd38c9138c9138d	0.3054545454545455
15	0x3fd4f2094f2094f2	0.32727272727272727
16	0x3fd6578165781658	0.3490909090909091
17	0x3fd7bcf97bcf97be	0.37090909090909097
18	0x3fd9227192271923	0.39272727272727276
19	0x3fda87e9a87e9a88	0.41454545454545455
20	0x3fdbed61bed61bee	0.4363636363636364
21	0x3fdd52d9d52d9d54	0.45818181818181825
22	0x3fdeb851eb851eb9	0.48000000000000004
23	0x3fe00ee500ee500f	0.5018181818181818
24	0x3fe0c1a10c1a10c2	0.5236363636363637
25	0x3fe1745d1745d175	0.5454545454545455
26	0x3fe2271922719228	0.5672727272727274
27	0x3fe2d9d52d9d52da	0.5890909090909091
28	0x3fe38c9138c9138d	0.610909090909091
29	0x3fe43f4d43f4d440	0.6327272727272728
30	0x3fe4f2094f2094f2	0.6545454545454545
31	0x3fe5a4c55a4c55a5	0.6763636363636364
32	0x3fe6578165781658	0.6981818181818182
33	0x3fe70a3d70a3d70b	0.7200000000000001
34	0x3fe7bcf97bcf97be	0.7418181818181819
35	0x3fe86fb586fb5870	0.7636363636363637
36	0x3fe9227192271923	0.7854545454545455
37	0x3fe9d52d9d52d9d6	0.8072727272727274
38	0x3fea87e9a87e9a88	0.8290909090909091
39	0x3feb3aa5b3aa5b3b	0.850909090909091
40	0x3febed61bed61bee	0.8727272727272728
41	0x3feca01dca01dca1	0.8945454545454546
42	0x3fed52d9d52d9d54	0.9163636363636365
43	0x3fee0595e0595e06	0.9381818181818182
44	0x3feeb851eb851eb9	0.9600000000000001
45	0x3fef6b0df6b0df6c	0.9818181818181819
46	0x3ff00ee500ee500f	1.0036363636363637
47	0x3ff0684306843069	1.0254545454545456
48	0x3ff0c1a10c1a10c2	1.0472727272727274
49	0x3ff11aff11aff11b	1.069090909090909
50	0x3ff1745d1745d175	1.090909090909091
51	0x3ff1cdbb1cdbb1ce	1.1127272727272728
52	0x3ff2271922719228	1.1345454545454547
53	0x3ff2807728077281	1.1563636363636365
54	0x3ff2d9d52d9d52da	1.1781818181818182
55	0x3ff3333333333334	1.2000000000000002

Delta f8 []
0	0x3fc999999999999a	0.2

theta f8 []
0	0x3ff921fb54442d18	1.5707963267948966

Lambda_R f8 []
0	0x3fe1eb851eb851ec	0.56

h f8 []
0	0x3f847ae147ae147b	0.01

k_x_values f8 [1000]
0	0x0000000000000000	0.0
1	0x3f79bc65b68b71c3	0.006283185307179587
2	0x3f89bc65b68b71c3	0.012566370614359173
3	0x3f934d4c48e89552	0.01884955592153876
4	0x3f99bc65b68b71c3	0.025132741228718346
5	0x3fa015bf9217271a	0.031415926535897934
6	0x3fa34d4c48e89552	0.03769911184307752
7	0x3fa684d8ffba038b	0.04398229715025711
8	0x3fa9bc65b68b71c3	0.05026548245743669
9	0x3facf3f26d5cdffb	0.05654866776461628
10	0x3fb015bf9217271a	0.06283185307179587
11	0x3fb1b185ed7fde36	0.06911503837897545
12	0x3fb34d4c48e89552	0.07539822368615504
13	0x3fb4e912a4514c6e	0.08168140899333462
14	0x3fb684d8ffba038b	0.08796459430051422
15	0x3fb8209f5b22baa7	0.0942477796076938
16	0x3fb9bc65b68b71c3	0.10053096491487339
17	0x3fbb582c11f428df	0.10681415022205297
18	0x3fbcf3f26d5cdffb	0.11309733552923255
19	0x3fbe8fb8c8c59718	0.11938052083641215
20	0x3fc015bf9217271a	0.12566370614359174
21	0x3fc0e3a2bfcb82a8	0.13194689145077132
22	0x3fc1b185ed7fde36	0.1382300767579509
23	0x3fc27f691b3439c4	0.1445132620651305
24	0x3fc34d4c48e89552	0.15079644737231007
25	0x3fc41b2f769cf0e0	0.15707963267948966
26	0x3fc4e912a4514c6e	0.16336281798666924
27	0x3fc5b6f5d205a7fd	0.16964600329384885
28	0x3fc684d8ffba038b	0.17592918860102844
29	0x3fc752bc2d6e5f19	0.18221237390820802
30	0x3fc8209f5b22baa7	0.1884955592153876
31	0x3fc8ee8288d71635	0.1947787445225672
32	0x3fc9bc65b68b71c3	0.20106192982974677
33	0x3fca8a48e43fcd51	0.20734511513692636
34	0x3fcb582c11f428df	0.21362830044410594
35	0x3fcc260f3fa8846d	0.21991148575128552
36	0x3fccf3f26d5cdffb	0.2261946710584651
37	0x3fcdc1d59b113b89	0.2324778563656447
38	0x3fce8fb8c8c59718	0.2387610416728243
39	0x3fcf5d9bf679f2a6	0.2450442269800039
40	0x3fd015bf9217271a	0.25132741228718347
41	0x3fd07cb128f154e1	0.25761059759436306
42	0x3fd0e3a2bfcb82a8	0.26389378290154264
43	0x3fd14a9456a5b06f	0.2701769682087222
44	0x3fd1b185ed7fde36	0.2764601535159018
45	0x3fd21877845a0bfd	0.2827433388230814
46	0x3fd27f691b3439c4	0.289026524130261
47	0x3fd2e65ab20e678b	0.29530970943744056
48	0x3fd34d4c48e89552	0.30159289474462014
49	0x3fd3b43ddfc2c319	0.3078760800517997
50	0x3fd41b2f769cf0e0	0.3141592653589793
51	0x3fd482210d771ea7	0.3204424506661589
52	0x3fd4e912a4514c6e	0.3267256359733385
53	0x3fd550043b2b7a35	0.33300882128051806
54	0x3fd5b6f5d205a7fd	0.3392920065876977
55	0x3fd61de768dfd5c4	0.3455751918948773
56	0x3fd684d8ffba038b	0.35185837720205687
57	0x3fd6ebca96943152	0.35814156250923646
58	0x3fd752bc2d6e5f19	0.36442474781641604
59	0x3fd7b9adc4488ce0	0.3707079331235956
60	0x3fd8209f5b22baa7	0.3769911184307752
61	0x3fd88790f1fce86e	0.3832743037379548
62	0x3fd8ee8288d71635	0.3895574890451344
63	0x3fd955741fb143fc	0.39584067435231396
64	0x3fd9bc65b68b71c3	0.40212385965949354
65	0x3fda23574d659f8a	0.4084070449666731
66	0x3fda8a48e43fcd51	0.4146902302738527
67	0x3fdaf13a7b19fb18	0.4209734155810323
68	0x3fdb582c11f428df	0.4272566008882119
69	0x3fdbbf1da8ce56a6	0.43353978619539146
70	0x3fdc260f3fa8846d	0.43982297150257105
71	0x3fdc8d00d682b234	0.44610615680975063
72	0x3fdcf3f26d5cdffb	0.4523893421169302
73	0x3fdd5ae404370dc2	0.4586725274241098
74	0x3fddc1d59b113b89	0.4649557127312894
75	0x3fde28c731eb6951	0.471238898038469
76	0x3fde8fb8c8c59718	0.4775220833456486
77	0x3fdef6aa5f9fc4df	0.4838052686528282
78	0x3fdf5d9bf679f2a6	0.4900884539600078
79	0x3fdfc48d8d54206d	0.49637163926718736
80	0x3fe015bf9217271a	0.5026548245743669
81	0x3fe049385d843dfd	0.5089380098815465
82	0x3fe07cb128f154e1	0.5152211951887261
83	0x3fe0b029f45e6bc4	0.5215043804959056
84	0x3fe0e3a2bfcb82a8	0.5277875658030853
85	0x3fe1171b8b38998b	0.5340707511102648
86	0x3fe14a9456a5b06f	0.5403539364174444
87	0x3fe17e0d2212c753	0.5466371217246241
88	0x3fe1b185ed7fde36	0.5529203070318036
89	0x3fe1e4feb8ecf51a	0.5592034923389833
90	0x3fe21877845a0bfd	0.5654866776461628
91	0x3fe24bf04fc722e1	0.5717698629533424
92	0x3fe27f691b3439c4	0.578053048260522
93	0x3fe2b2e1e6a150a8	0.5843362335677016
94	0x3fe2e65ab20e678b	0.5906194188748811
95	0x3fe319d37d7b7e6f	0.5969026041820608
96	0x3fe34d4c48e89552	0.6031857894892403
97	0x3fe380c51455ac36	0.6094689747964199
98	0x3fe3b43ddfc2c319	0.6157521601035995
99	0x3fe3e7b6ab2fd9fd	0.6220353454107791
100	0x3fe41b2f769cf0e0	0.6283185307179586
101	0x3fe44ea8420a07c4	0.6346017160251383
102	0x3fe482210d771ea7	0.6408849013323178
103	0x3fe4b599d8e4358b	0.6471680866394974
104	0x3fe4e912a4514c6e	0.653451271946677
105	0x3fe51c8b6fbe6352	0.6597344572538566
106	0x3fe550043b2b7a35	0.6660176425610361
107	0x3fe5837d06989119	0.6723008278682158
108	0x3fe5b6f5d205a7fd	0.6785840131753954
109	0x3fe5ea6e9d72bee0	0.6848671984825749
110	0x3fe61de768dfd5c4	0.6911503837897546
111	0x3fe65160344ceca7	0.6974335690969341
112	0x3fe684d8ffba038b	0.7037167544041137
113	0x3fe6b851cb271a6e	0.7099999397112933
114	0x3fe6ebca96943152	0.7162831250184729
115	0x3fe71f4362014835	0.7225663103256524
116	0x3fe752bc2d6e5f19	0.7288494956328321
117	0x3fe78634f8db75fc	0.7351326809400116
118	0x3fe7b9adc4488ce0	0.7414158662471912
119	0x3fe7ed268fb5a3c3	0.7476990515543708
120	0x3fe8209f5b22baa7	0.7539822368615504
121	0x3fe85418268fd18a	0.7602654221687299
122	0x3fe88790f1fce86e	0.7665486074759096
123	0x3fe8bb09bd69ff51	0.7728317927830891
124	0x3fe8ee8288d71635	0.7791149780902688
125	0x3fe921fb54442d18	0.7853981633974483
126	0x3fe955741fb143fc	0.7916813487046279
127	0x3fe988eceb1e5adf	0.7979645340118074
128	0x3fe9bc65b68b71c3	0.8042477193189871
129	0x3fe9efde81f888a7	0.8105309046261667
130	0x3fea23574d659f8a	0.8168140899333463
131	0x3fea56d018d2b66e	0.8230972752405259
132	0x3fea8a48e43fcd51	0.8293804605477054
133	0x3feabdc1aface435	0.8356636458548851
134	0x3feaf13a7b19fb18	0.8419468311620646
135	0x3feb24b3468711fc	0.8482300164692442
136	0x3feb582c11f428df	0.8545132017764238
137	0x3feb8ba4dd613fc3	0.8607963870836034
138	0x3febbf1da8ce56a6	0.8670795723907829
139	0x3febf296743b6d8a	0.8733627576979626
140	0x3fec260f3fa8846d	0.8796459430051421
141	0x3fec59880b159b51	0.8859291283123217
142	0x3fec8d00d682b234	0.8922123136195013
143	0x3fecc079a1efc918	0.8984954989266809
144	0x3fecf3f26d5cdffb	0.9047786842338604
145	0x3fed276b38c9f6df	0.9110618695410401
146	0x3fed5ae404370dc2	0.9173450548482196
147	0x3fed8e5ccfa424a6	0.9236282401553992
148	0x3fedc1d59b113b89	0.9299114254625788
149	0x3fedf54e667e526d	0.9361946107697584
150	0x3fee28c731eb6951	0.942477796076938
151	0x3fee5c3ffd588034	0.9487609813841176
152	0x3fee8fb8c8c59718	0.9550441666912972
153	0x3feec3319432adfb	0.9613273519984767
154	0x3feef6aa5f9fc4df	0.9676105373056564
155	0x3fef2a232b0cdbc2	0.9738937226128359
156	0x3fef5d9bf679f2a6	0.9801769079200155
157	0x3fef9114c1e70989	0.9864600932271951
158	0x3fefc48d8d54206d	0.9927432785343747
159	0x3feff80658c13750	0.9990264638415542
160	0x3ff015bf9217271a	1.0053096491487339
161	0x3ff02f7bf7cdb28c	1.0115928344559135
162	0x3ff049385d843dfd	1.017876019763093
163	0x3ff062f4c33ac96f	1.0241592050702726
164	0x3ff07cb128f154e1	1.0304423903774522
165	0x3ff0966d8ea7e053	1.0367255756846319
166	0x3ff0b029f45e6bc4	1.0430087609918113
167	0x3ff0c9e65a14f736	1.049291946298991
168	0x3ff0e3a2bfcb82a8	1.0555751316061706
169	0x3ff0fd5f25820e1a	1.0618583169133502
170	0x3ff1171b8b38998b	1.0681415022205296
171	0x3ff130d7f0ef24fd	1.0744246875277093
172	0x3ff14a9456a5b06f	1.080707872834889
173	0x3ff16450bc5c3be1	1.0869910581420685
174	0x3ff17e0d2212c753	1.0932742434492482
175	0x3ff197c987c952c4	1.0995574287564276
176	0x3ff1b185ed7fde36	1.1058406140636072
177	0x3ff1cb42533669a8	1.1121237993707869
178	0x3ff1e4feb8ecf51a	1.1184069846779665
179	0x3ff1febb1ea3808b	1.124690169985146
180	0x3ff21877845a0bfd	1.1309733552923256
181	0x3ff23233ea10976f	1.1372565405995052
182	0x3ff24bf04fc722e1	1.1435397259066848
183	0x3ff265acb57dae52	1.1498229112138643
184	0x3ff27f691b3439c4	1.156106096521044
185	0x3ff2992580eac536	1.1623892818282235
186	0x3ff2b2e1e6a150a8	1.1686724671354032
187	0x3ff2cc9e4c57dc19	1.1749556524425826
188	0x3ff2e65ab20e678b	1.1812388377497622
189	0x3ff3001717c4f2fd	1.1875220230569419
190	0x3ff319d37d7b7e6f	1.1938052083641215
191	0x3ff3338fe33209e0	1.200088393671301
192	0x3ff34d4c48e89552	1.2063715789784806
193	0x3ff36708ae9f20c4	1.2126547642856602
194	0x3ff380c51455ac36	1.2189379495928399
195	0x3ff39a817a0c37a8	1.2252211349000195
196	0x3ff3b43ddfc2c319	1.231504320207199
197	0x3ff3cdfa45794e8b	1.2377875055143785
198	0x3ff3e7b6ab2fd9fd	1.2440706908215582
199	0x3ff4017310e6656f	1.2503538761287378
200	0x3ff41b2f769cf0e0	1.2566370614359172
201	0x3ff434ebdc537c52	1.2629202467430969
202	0x3ff44ea8420a07c4	1.2692034320502765
203	0x3ff46864a7c09336	1.2754866173574562
204	0x3ff482210d771ea7	1.2817698026646356
205	0x3ff49bdd732daa19	1.2880529879718152
206	0x3ff4b599d8e4358b	1.2943361732789949
207	0x3ff4cf563e9ac0fd	1.3006193585861745
208	0x3ff4e912a4514c6e	1.306902543893354
209	0x3ff502cf0a07d7e0	1.3131857292005336
210	0x3ff51c8b6fbe6352	1.3194689145077132
211	0x3ff53647d574eec4	1.3257520998148928
212	0x3ff550043b2b7a35	1.3320352851220723
213	0x3ff569c0a0e205a7	1.338318470429252
214	0x3ff5837d06989119	1.3446016557364315
215	0x3ff59d396c4f1c8b	1.3508848410436112
216	0x3ff5b6f5d205a7fd	1.3571680263507908
217	0x3ff5d0b237bc336e	1.3634512116579702
218	0x3ff5ea6e9d72bee0	1.3697343969651499
219	0x3ff6042b03294a52	1.3760175822723295
220	0x3ff61de768dfd5c4	1.3823007675795091
221	0x3ff637a3ce966135	1.3885839528866886
222	0x3ff65160344ceca7	1.3948671381938682
223	0x3ff66b1c9a037819	1.4011503235010478
224	0x3ff684d8ffba038b	1.4074335088082275
225	0x3ff69e9565708efc	1.413716694115407
226	0x3ff6b851cb271a6e	1.4199998794225865
227	0x3ff6d20e30dda5e0	1.4262830647297662
228	0x3ff6ebca96943152	1.4325662500369458
229	0x3ff70586fc4abcc3	1.4388494353441252
230	0x3ff71f4362014835	1.4451326206513049
231	0x3ff738ffc7b7d3a7	1.4514158059584845
232	0x3ff752bc2d6e5f19	1.4576989912656642
233	0x3ff76c789324ea8a	1.4639821765728436
234	0x3ff78634f8db75fc	1.4702653618800232
235	0x3ff79ff15e92016e	1.4765485471872029
236	0x3ff7b9adc4488ce0	1.4828317324943825
237	0x3ff7d36a29ff1852	1.4891149178015621
238	0x3ff7ed268fb5a3c3	1.4953981031087415
239	0x3ff806e2f56c2f35	1.5016812884159212
240	0x3ff8209f5b22baa7	1.5079644737231008
241	0x3ff83a5bc0d94619	1.5142476590302805
242	0x3ff85418268fd18a	1.5205308443374599
243	0x3ff86dd48c465cfc	1.5268140296446395
244	0x3ff88790f1fce86e	1.5330972149518192
245	0x3ff8a14d57b373e0	1.5393804002589988
246	0x3ff8bb09bd69ff51	1.5456635855661782
247	0x3ff8d4c623208ac3	1.5519467708733579
248	0x3ff8ee8288d71635	1.5582299561805375
249	0x3ff9083eee8da1a7	1.5645131414877171
250	0x3ff921fb54442d18	1.5707963267948966
251	0x3ff93bb7b9fab88a	1.5770795121020762
252	0x3ff955741fb143fc	1.5833626974092558
253	0x3ff96f308567cf6e	1.5896458827164355
254	0x3ff988eceb1e5adf	1.595929068023615
255	0x3ff9a2a950d4e651	1.6022122533307945

k_y_values f8 [1000]
0	0x0000000000000000	0.0
1	0x3f79bc65b68b71c3	0.006283185307179587
2	0x3f89bc65b68b71c3	0.012566370614359173
3	0x3f934d4c48e89552	0.01884955592153876
4	0x3f99bc65b68b71c3	0.025132741228718346
5	0x3fa015bf9217271a	0.031415926535897934
6	0x3fa34d4c48e89552	0.03769911184307752
7	0x3fa684d8ffba038b	0.04398229715025711
8	0x3fa9bc65b68b71c3	0.05026548245743669
9	0x3facf3f26d5cdffb	0.05654866776461628
10	0x3fb015bf9217271a	0.06283185307179587
11	0x3fb1b185ed7fde36	0.06911503837897545
12	0x3fb34d4c48e89552	0.07539822368615504
13	0x3fb4e912a4514c6e	0.08168140899333462
14	0x3fb684d8ffba038b	0.08796459430051422
15	0x3fb8209f5b22baa7	0.0942477796076938
16	0x3fb9bc65b68b71c3	0.10053096491487339
17	0x3fbb582c11f428df	0.10681415022205297
18	0x3fbcf3f26d5cdffb	0.11309733552923255
19	0x3fbe8fb8c8c59718	0.11938052083641215
20	0x3fc015bf9217271a	0.12566370614359174
21	0x3fc0e3a2bfcb82a8	0.13194689145077132
22	0x3fc1b185ed7fde36	0.1382300767579509
23	0x3fc27f691b3439c4	0.1445132620651305
24	0x3fc34d4c48e89552	0.15079644737231007
25	0x3fc41b2f769cf0e0	0.15707963267948966
26	0x3fc4e912a4514c6e	0.16336281798666924
27	0x3fc5b6f5d205a7fd	0.16964600329384885
28	0x3fc684d8ffba038b	0.17592918860102844
29	0x3fc752bc2d6e5f19	0.18221237390820802
30	0x3fc8209f5b22baa7	0.1884955592153876
31	0x3fc8ee8288d71635	0.1947787445225672
32	0x3fc9bc65b68b71c3	0.20106192982974677
33	0x3fca8a48e43fcd51	0.20734511513692636
34	0x3fcb582c11f428df	0.21362830044410594
35	0x3fcc260f3fa8846d	0.21991148575128552
36	0x3fccf3f26d5cdffb	0.2261946710584651
37	0x3fcdc1d59b113b89	0.2324778563656447
38	0x3fce8fb8c8c59718	0.2387610416728243
39	0x3fcf5d9bf679f2a6	0.2450442269800039
40	0x3fd015bf9217271a	0.25132741228718347
41	0x3fd07cb128f154e1	0.25761059759436306
42	0x3fd0e3a2bfcb82a8	0.26389378290154264
43	0x3fd14a9456a5b06f	0.2701769682087222
44	0x3fd1b185ed7fde36	0.2764601535159018
45	0x3fd21877845a0bfd	0.2827433388230814
46	0x3fd27f691b3439c4	0.289026524130261
47	0x3fd2e65ab20e678b	0.29530970943744056
48	0x3fd34d4c48e89552	0.30159289474462014
49	0x3fd3b43ddfc2c319	0.3078760800517997
50	0x3fd41b2f769cf0e0	0.3141592653589793
51	0x3fd482210d771ea7	0.3204424506661589
52	0x3fd4e912a4514c6e	0.3267256359733385
53	0x3fd550043b2b7a35	0.33300882128051806
54	0x3fd5b6f5d205a7fd	0.3392920065876977
55	0x3fd61de768dfd5c4	0.3455751918948773
56	0x3fd684d8ffba038b	0.35185837720205687
57	0x3fd6ebca96943152	0.35814156250923646
58	0x3fd752bc2d6e5f19	0.36442474781641604
59	0x3fd7b9adc4488ce0	0.3707079331235956
60	0x3fd8209f5b22baa7	0.3769911184307752
61	0x3fd88790f1fce86e	0.3832743037379548
62	0x3fd8ee8288d71635	0.3895574890451344
63	0x3fd955741fb143fc	0.39584067435231396
64	0x3fd9bc65b68b71c3	0.40212385965949354
65	0x3fda23574d659f8a	0.4084070449666731
66	0x3fda8a48e43fcd51	0.4146902302738527
67	0x3fdaf13a7b19fb18	0.4209734155810323
68	0x3fdb582c11f428df	0.4272566008882119
69	0x3fdbbf1da8ce56a6	0.43353978619539146
70	0x3fdc260f3fa8846d	0.43982297150257105
71	0x3fdc8d00d682b234	0.44610615680975063
72	0x3fdcf3f26d5cdffb	0.4523893421169302
73	0x3fdd5ae404370dc2	0.4586725274241098
74	0x3fddc1d59b113b89	0.4649557127312894
75	0x3fde28c731eb6951	0.471238898038469
76	0x3fde8fb8c8c59718	0.4775220833456486
77	0x3fdef6aa5f9fc4df	0.4838052686528282
78	0x3fdf5d9bf679f2a6	0.4900884539600078
79	0x3fdfc48d8d54206d	0.49637163926718736
80	0x3fe015bf9217271a	0.5026548245743669
81	0x3fe049385d843dfd	0.5089380098815465
82	0x3fe07cb128f154e1	0.5152211951887261
83	0x3fe0b029f45e6bc4	0.5215043804959056
84	0x3fe0e3a2bfcb82a8	0.5277875658030853
85	0x3fe1171b8b38998b	0.5340707511102648
86	0x3fe14a9456a5b06f	0.5403539364174444
87	0x3fe17e0d2212c753	0.5466371217246241
88	0x3fe1b185ed7fde36	0.5529203070318036
89	0x3fe1e4feb8ecf51a	0.5592034923389833
90	0x3fe21877845a0bfd	0.5654866776461628
91	0x3fe24bf04fc722e1	0.5717698629533424
92	0x3fe27f691b3439c4	0.578053048260522
93	0x3fe2b2e1e6a150a8	0.5843362335677016
94	0x3fe2e65ab20e678b	0.5906194188748811
95	0x3fe319d37d7b7e6f	0.5969026041820608
96	0x3fe34d4c48e89552	0.6031857894892403
97	0x3fe380c51455ac36	0.6094689747964199
98	0x3fe3b43ddfc2c319	0.6157521601035995
99	0x3fe3e7b6ab2fd9fd	0.6220353454107791
100	0x3fe41b2f769cf0e0	0.6283185307179586
101	0x3fe44ea8420a07c4	0.6346017160251383
102	0x3fe482210d771ea7	0.6408849013323178
103	0x3fe4b599d8e4358b	0.6471680866394974
104	0x3fe4e912a4514c6e	0.653451271946677
105	0x3fe51c8b6fbe6352	0.6597344572538566
106	0x3fe550043b2b7a35	0.6660176425610361
107	0x3fe5837d06989119	0.6723008278682158
108	0x3fe5b6f5d205a7fd	0.6785840131753954
109	0x3fe5ea6e9d72bee0	0.6848671984825749
110	0x3fe61de768dfd5c4	0.6911503837897546
111	0x3fe65160344ceca7	0.6974335690969341
112	0x3fe684d8ffba038b	0.7037167544041137
113	0x3fe6b851cb271a6e	0.7099999397112933
114	0x3fe6ebca96943152	0.7162831250184729
115	0x3fe71f4362014835	0.7225663103256524
116	0x3fe752bc2d6e5f19	0.7288494956328321
117	0x3fe78634f8db75fc	0.7351326809400116
118	0x3fe7b9adc4488ce0	0.7414158662471912
119	0x3fe7ed268fb5a3c3	0.7476990515543708
120	0x3fe8209f5b22baa7	0.7539822368615504
121	0x3fe85418268fd18a	0.7602654221687299
122	0x3fe88790f1fce86e	0.7665486074759096
123	0x3fe8bb09bd69ff51	0.7728317927830891
124	0x3fe8ee8288d71635	0.7791149780902688
125	0x3fe921fb54442d18	0.7853981633974483
126	0x3fe955741fb143fc	0.7916813487046279
127	0x3fe988eceb1e5adf	0.7979645340118074
128	0x3fe9bc65b68b71c3	0.8042477193189871
129	0x3fe9efde81f888a7	0.8105309046261667
130	0x3fea23574d659f8a	0.8168140899333463
131	0x3fea56d018d2b66e	0.8230972752405259
132	0x3fea8a48e43fcd51	0.8293804605477054
133	0x3feabdc1aface435	0.8356636458548851
134	0x3feaf13a7b19fb18	0.8419468311620646
135	0x3feb24b3468711fc	0.8482300164692442
136	0x3feb582c11f428df	0.8545132017764238
137	0x3feb8ba4dd613fc3	0.8607963870836034
138	0x3febbf1da8ce56a6	0.8670795723907829
139	0x3febf296743b6d8a	0.8733627576979626
140	0x3fec260f3fa8846d	0.8796459430051421
141	0x3fec59880b159b51	0.8859291283123217
142	0x3fec8d00d682b234	0.8922123136195013
143	0x3fecc079a1efc918	0.8984954989266809
144	0x3fecf3f26d5cdffb	0.9047786842338604
145	0x3fed276b38c9f6df	0.9110618695410401
146	0x3fed5ae404370dc2	0.9173450548482196
147	0x3fed8e5ccfa424a6	0.9236282401553992
148	0x3fedc1d59b113b89	0.9299114254625788
149	0x3fedf54e667e526d	0.9361946107697584
150	0x3fee28c731eb6951	0.942477796076938
151	0x3fee5c3ffd588034	0.9487609813841176
152	0x3fee8fb8c8c59718	0.9550441666912972
153	0x3feec3319432adfb	0.9613273519984767
154	0x3feef6aa5f9fc4df	0.9676105373056564
155	0x3fef2a232b0cdbc2	0.9738937226128359
156	0x3fef5d9bf679f2a6	0.9801769079200155
157	0x3fef9114c1e70989	0.9864600932271951
158	0x3fefc48d8d54206d	0.9927432785343747
159	0x3feff80658c13750	0.9990264638415542
160	0x3ff015bf9217271a	1.0053096491487339
161	0x3ff02f7bf7cdb28c	1.0115928344559135
162	0x3ff049385d843dfd	1.017876019763093
163	0x3ff062f4c33ac96f	1.0241592050702726
164	0x3ff07cb128f154e1	1.0304423903774522
165	0x3ff0966d8ea7e053	1.0367255756846319
166	0x3ff0b029f45e6bc4	1.0430087609918113
167	0x3ff0c9e65a14f736	1.049291946298991
168	0x3ff0e3a2bfcb82a8	1.0555751316061706
169	0x3ff0fd5f25820e1a	1.0618583169133502
170	0x3ff1171b8b38998b	1.0681415022205296
171	0x3ff130d7f0ef24fd	1.0744246875277093
172	0x3ff14a9456a5b06f	1.080707872834889
173	0x3ff16450bc5c3be1	1.0869910581420685
174	0x3ff17e0d2212c753	1.0932742434492482
175	0x3ff197c987c952c4	1.0995574287564276
176	0x3ff1b185ed7fde36	1.1058406140636072
177	0x3ff1cb42533669a8	1.1121237993707869
178	0x3ff1e4feb8ecf51a	1.1184069846779665
179	0x3ff1febb1ea3808b	1.124690169985146
180	0x3ff21877845a0bfd	1.1309733552923256
181	0x3ff23233ea10976f	1.1372565405995052
182	0x3ff24bf04fc722e1	1.1435397259066848
183	0x3ff265acb57dae52	1.1498229112138643
184	0x3ff27f691b3439c4	1.156106096521044
185	0x3ff2992580eac536	1.1623892818282235
186	0x3ff2b2e1e6a150a8	1.1686724671354032
187	0x3ff2cc9e4c57dc19	1.1749556524425826
188	0x3ff2e65ab20e678b	1.1812388377497622
189	0x3ff3001717c4f2fd	1.1875220230569419
190	0x3ff319d37d7b7e6f	1.1938052083641215
191	0x3ff3338fe33209e0	1.200088393671301
192	0x3ff34d4c48e89552	1.2063715789784806
193	0x3ff36708ae9f20c4	1.2126547642856602
194	0x3ff380c51455ac36	1.2189379495928399
195	0x3ff39a817a0c37a8	1.2252211349000195
196	0x3ff3b43ddfc2c319	1.231504320207199
197	0x3ff3cdfa45794e8b	1.2377875055143785
198	0x3ff3e7b6ab2fd9fd	1.2440706908215582
199	0x3ff4017310e6656f	1.2503538761287378
200	0x3ff41b2f769cf0e0	1.2566370614359172
201	0x3ff434ebdc537c52	1.2629202467430969
202	0x3ff44ea8420a07c4	1.2692034320502765
203	0x3ff46864a7c09336	1.2754866173574562
204	0x3ff482210d771ea7	1.2817698026646356
205	0x3ff49bdd732daa19	1.2880529879718152
206	0x3ff4b599d8e4358b	1.2943361732789949
207	0x3ff4cf563e9ac0fd	1.3006193585861745
208	0x3ff4e912a4514c6e	1.306902543893354
209	0x3ff502cf0a07d7e0	1.3131857292005336
210	0x3ff51c8b6fbe6352	1.3194689145077132
211	0x3ff53647d574eec4	1.3257520998148928
212	0x3ff550043b2b7a35	1.3320352851220723
213	0x3ff569c0a0e205a7	1.338318470429252
214	0x3ff5837d06989119	1.3446016557364315
215	0x3ff59d396c4f1c8b	1.3508848410436112
216	0x3ff5b6f5d205a7fd	1.3571680263507908
217	0x3ff5d0b237bc336e	1.3634512116579702
218	0x3ff5ea6e9d72bee0	1.3697343969651499
219	0x3ff6042b03294a52	1.3760175822723295
220	0x3ff61de768dfd5c4	1.3823007675795091
221	0x3ff637a3ce966135	1.3885839528866886
222	0x3ff65160344ceca7	1.3948671381938682
223	0x3ff66b1c9a037819	1.4011503235010478
224	0x3ff684d8ffba038b	1.4074335088082275
225	0x3ff69e9565708efc	1.413716694115407
226	0x3ff6b851cb271a6e	1.4199998794225865
227	0x3ff6d20e30dda5e0	1.4262830647297662
228	0x3ff6ebca96943152	1.4325662500369458
229	0x3ff70586fc4abcc3	1.4388494353441252
230	0x3ff71f4362014835	1.4451326206513049
231	0x3ff738ffc7b7d3a7	1.4514158059584845
232	0x3ff752bc2d6e5f19	1.4576989912656642
233	0x3ff76c789324ea8a	1.4639821765728436
234	0x3ff78634f8db75fc	1.4702653618800232
235	0x3ff79ff15e92016e	1.4765485471872029
236	0x3ff7b9adc4488ce0	1.4828317324943825
237	0x3ff7d36a29ff1852	1.4891149178015621
238	0x3ff7ed268fb5a3c3	1.4953981031087415
239	0x3ff806e2f56c2f35	1.5016812884159212
240	0x3ff8209f5b22baa7	1.5079644737231008
241	0x3ff83a5bc0d94619	1.5142476590302805
242	0x3ff85418268fd18a	1.5205308443374599
243	0x3ff86dd48c465cfc	1.5268140296446395
244	0x3ff88790f1fce86e	1.5330972149518192
245	0x3ff8a14d57b373e0	1.5393804002589988
246	0x3ff8bb09bd69ff51	1.5456635855661782
247	0x3ff8d4c623208ac3	1.5519467708733579
248	0x3ff8ee8288d71635	1.5582299561805375
249	0x3ff9083eee8da1a7	1.5645131414877171
250	0x3ff921fb54442d18	1.5707963267948966
251	0x3ff93bb7b9fab88a	1.5770795121020762
252	0x3ff955741fb143fc	1.5833626974092558
253	0x3ff96f308567cf6e	1.5896458827164355
254	0x3ff988eceb1e5adf	1.595929068023615
255	0x3ff9a2a950d4e651	1.6022122533307945
